…
I0515 19:31:27.600196 66843 net.cpp:294] The NetState phase (0) differed from the phase (1) specified by a rule in layer accuracy
I0515 19:31:27.600370 66843 net.cpp:51] Initializing net from parameters: 
name: "AlexNet"
state {
  phase: TRAIN
  level: 0
  stage: ""
}
layer {
  name: "data"
  type: "ImageData"
  top: "data"
  top: "label"
  include {
    phase: TRAIN
  }
  transform_param {
    mirror: true
    mean_file: "/home/gp/zk/ck+/mytest/input/mean.binaryproto"
  }
  image_data_param {
    source: "/home/gp/zk/ck+/mytest/trainlabel.txt"
    batch_size: 64
    new_height: 224
    new_width: 224
  }
}
layer {
  name: "conv1"
  type: "Convolution"
  bottom: "data"
  top: "conv1"
  param {
    lr_mult: 1
    decay_mult: 1
  }
  param {
    lr_mult: 2
    decay_mult: 0
  }
  convolution_param {
    num_output: 96
    kernel_size: 11
    stride: 4
    weight_filler {
      type: "gaussian"
      std: 0.01
    }
    bias_filler {
      type: "constant"
      value: 0
    }
  }
}
layer {
  name: "relu1"
  type: "ReLU"
  bottom: "conv1"
  top: "conv1"
}
layer {
  name: "norm1"
  type: "LRN"
  bottom: "conv1"
  top: "norm1"
  lrn_param {
    local_size: 5
    alpha: 0.0001
    beta: 0.75
  }
}
layer {
  name: "pool1"
  type: "Pooling"
  bottom: "norm1"
  top: "pool1"
  pooling_param {
    pool: MAX
    kernel_size: 3
    stride: 2
  }
}
layer {
  name: "conv2"
  type: "Convolution"
  bottom: "pool1"
  top: "conv2"
  param {
    lr_mult: 1
    decay_mult: 1
  }
  param {
    lr_mult: 2
    decay_mult: 0
  }
  convolution_param {
    num_output: 256
    pad: 2
    kernel_size: 5
    group: 2
    weight_filler {
      type: "gaussian"
      std: 0.01
    }
    bias_filler {
      type: "constant"
      value: 0.1
    }
  }
}
layer {
  name: "relu2"
  type: "ReLU"
  bottom: "conv2"
  top: "conv2"
}
layer {
  name: "norm2"
  type: "LRN"
  bottom: "conv2"
  top: "norm2"
  lrn_param {
    local_size: 5
    alpha: 0.0001
    beta: 0.75
  }
}
layer {
  name: "pool2"
  type: "Pooling"
  bottom: "norm2"
  top: "pool2"
  pooling_param {
    pool: MAX
    kernel_size: 3
    stride: 2
  }
}
layer {
  name: "conv3"
  type: "Convolution"
  bottom: "pool2"
  top: "conv3"
  param {
    lr_mult: 1
    decay_mult: 1
  }
  param {
    lr_mult: 2
    decay_mult: 0
  }
  convolution_param {
    num_output: 384
    pad: 1
    kernel_size: 3
    weight_filler {
      type: "gaussian"
      std: 0.01
    }
    bias_filler {
      type: "constant"
      value: 0
    }
  }
}
layer {
  name: "relu3"
  type: "ReLU"
  bottom: "conv3"
  top: "conv3"
}
layer {
  name: "conv4"
  type: "Convolution"
  bottom: "conv3"
  top: "conv4"
  param {
    lr_mult: 1
    decay_mult: 1
  }
  param {
    lr_mult: 2
    decay_mult: 0
  }
  convolution_param {
    num_output: 384
    pad: 1
    kernel_size: 3
    group: 2
    weight_filler {
      type: "gaussian"
      std: 0.01
    }
    bias_filler {
      type: "constant"
      value: 0.1
    }
  }
}
layer {
  name: "relu4"
  type: "ReLU"
  bottom: "conv4"
  top: "conv4"
}
layer {
  name: "conv5"
  type: "Convolution"
  bottom: "conv4"
  top: "conv5"
  param {
    lr_mult: 1
    decay_mult: 1
  }
  param {
    lr_mult: 2
    decay_mult: 0
  }
  convolution_param {
    num_output: 256
    pad: 1
    kernel_size: 3
    group: 2
    weight_filler {
      type: "gaussian"
      std: 0.01
    }
    bias_filler {
      type: "constant"
      value: 0.1
    }
  }
}
layer {
  name: "relu5"
  type: "ReLU"
  bottom: "conv5"
  top: "conv5"
}
layer {
  name: "pool5"
  type: "Pooling"
  bottom: "conv5"
  top: "pool5"
  pooling_param {
    pool: MAX
    kernel_size: 3
    stride: 2
  }
}
layer {
  name: "fc6"
  type: "InnerProduct"
  bottom: "pool5"
  top: "fc6"
  param {
    lr_mult: 1
    decay_mult: 1
  }
  param {
    lr_mult: 2
    decay_mult: 0
  }
  inner_product_param {
    num_output: 4096
    weight_filler {
      type: "gaussian"
      std: 0.005
    }
    bias_filler {
      type: "constant"
      value: 0.1
    }
  }
}
layer {
  name: "relu6"
  type: "ReLU"
  bottom: "fc6"
  top: "fc6"
}
layer {
  name: "drop6"
  type: "Dropout"
  bottom: "fc6"
  top: "fc6"
  dropout_param {
    dropout_ratio: 0.5
  }
}
layer {
  name: "fc7"
  type: "InnerProduct"
  bottom: "fc6"
  top: "fc7"
  param {
    lr_mult: 1
    decay_mult: 1
  }
  param {
    lr_mult: 2
    decay_mult: 0
  }
  inner_product_param {
    num_output: 4096
    weight_filler {
      type: "gaussian"
      std: 0.005
    }
    bias_filler {
      type: "constant"
      value: 0.1
    }
  }
}
layer {
  name: "relu7"
  type: "ReLU"
  bottom: "fc7"
  top: "fc7"
}
layer {
  name: "drop7"
  type: "Dropout"
  bottom: "fc7"
  top: "fc7"
  dropout_param {
    dropout_ratio: 0.5
  }
}
layer {
  name: "fc8"
  type: "InnerProduct"
  bottom: "fc7"
  top: "fc8"
  param {
    lr_mult: 1
    decay_mult: 1
  }
  param {
    lr_mult: 2
    decay_mult: 0
  }
  inner_product_param {
    num_output: 8
    weight_filler {
      type: "gaussian"
      std: 0.01
    }
    bias_filler {
      type: "constant"
      value: 0
    }
  }
}
layer {
  name: "loss"
  type: "SoftmaxWithLoss"
  bottom: "fc8"
  bottom: "label"
  top: "loss"
}
I0515 19:31:27.600481 66843 layer_factory.hpp:77] Creating layer data
I0515 19:31:27.600519 66843 net.cpp:84] Creating Layer data
I0515 19:31:27.600528 66843 net.cpp:380] data -> data
I0515 19:31:27.600555 66843 net.cpp:380] data -> label
I0515 19:31:27.600579 66843 data_transformer.cpp:25] Loading mean file from: /home/gp/zk/ck+/mytest/input/mean.binaryproto
I0515 19:31:27.604349 66843 image_data_layer.cpp:38] Opening file /home/gp/zk/ck+/mytest/trainlabel.txt
I0515 19:31:27.604765 66843 image_data_layer.cpp:63] A total of 834 images.
I0515 19:31:27.624397 66843 image_data_layer.cpp:90] output data size: 64,3,224,224
I0515 19:31:27.745812 66843 net.cpp:122] Setting up data
I0515 19:31:27.745862 66843 net.cpp:129] Top shape: 64 3 224 224 (9633792)
I0515 19:31:27.745868 66843 net.cpp:129] Top shape: 64 (64)
I0515 19:31:27.745872 66843 net.cpp:137] Memory required for data: 38535424
I0515 19:31:27.745880 66843 layer_factory.hpp:77] Creating layer conv1
I0515 19:31:27.745942 66843 net.cpp:84] Creating Layer conv1
I0515 19:31:27.745951 66843 net.cpp:406] conv1 <- data
I0515 19:31:27.745970 66843 net.cpp:380] conv1 -> conv1
I0515 19:31:28.199846 66843 net.cpp:122] Setting up conv1
I0515 19:31:28.199888 66843 net.cpp:129] Top shape: 64 96 54 54 (17915904)
I0515 19:31:28.199898 66843 net.cpp:137] Memory required for data: 110199040
I0515 19:31:28.199932 66843 layer_factory.hpp:77] Creating layer relu1
I0515 19:31:28.199951 66843 net.cpp:84] Creating Layer relu1
I0515 19:31:28.199959 66843 net.cpp:406] relu1 <- conv1
I0515 19:31:28.199973 66843 net.cpp:367] relu1 -> conv1 (in-place)
I0515 19:31:28.200312 66843 net.cpp:122] Setting up relu1
I0515 19:31:28.200331 66843 net.cpp:129] Top shape: 64 96 54 54 (17915904)
I0515 19:31:28.200347 66843 net.cpp:137] Memory required for data: 181862656
I0515 19:31:28.200354 66843 layer_factory.hpp:77] Creating layer norm1
I0515 19:31:28.200371 66843 net.cpp:84] Creating Layer norm1
I0515 19:31:28.200376 66843 net.cpp:406] norm1 <- conv1
I0515 19:31:28.200383 66843 net.cpp:380] norm1 -> norm1
I0515 19:31:28.201648 66843 net.cpp:122] Setting up norm1
I0515 19:31:28.201683 66843 net.cpp:129] Top shape: 64 96 54 54 (17915904)
I0515 19:31:28.201689 66843 net.cpp:137] Memory required for data: 253526272
I0515 19:31:28.201730 66843 layer_factory.hpp:77] Creating layer pool1
I0515 19:31:28.201745 66843 net.cpp:84] Creating Layer pool1
I0515 19:31:28.201750 66843 net.cpp:406] pool1 <- norm1
I0515 19:31:28.201761 66843 net.cpp:380] pool1 -> pool1
I0515 19:31:28.201830 66843 net.cpp:122] Setting up pool1
I0515 19:31:28.201843 66843 net.cpp:129] Top shape: 64 96 27 27 (4478976)
I0515 19:31:28.201850 66843 net.cpp:137] Memory required for data: 271442176
I0515 19:31:28.201855 66843 layer_factory.hpp:77] Creating layer conv2
I0515 19:31:28.201875 66843 net.cpp:84] Creating Layer conv2
I0515 19:31:28.201884 66843 net.cpp:406] conv2 <- pool1
I0515 19:31:28.201894 66843 net.cpp:380] conv2 -> conv2
I0515 19:31:28.210994 66843 net.cpp:122] Setting up conv2
I0515 19:31:28.211019 66843 net.cpp:129] Top shape: 64 256 27 27 (11943936)
I0515 19:31:28.211025 66843 net.cpp:137] Memory required for data: 319217920
I0515 19:31:28.211043 66843 layer_factory.hpp:77] Creating layer relu2
I0515 19:31:28.211055 66843 net.cpp:84] Creating Layer relu2
I0515 19:31:28.211060 66843 net.cpp:406] relu2 <- conv2
I0515 19:31:28.211068 66843 net.cpp:367] relu2 -> conv2 (in-place)
I0515 19:31:28.212318 66843 net.cpp:122] Setting up relu2
I0515 19:31:28.212339 66843 net.cpp:129] Top shape: 64 256 27 27 (11943936)
I0515 19:31:28.212344 66843 net.cpp:137] Memory required for data: 366993664
I0515 19:31:28.212353 66843 layer_factory.hpp:77] Creating layer norm2
I0515 19:31:28.212364 66843 net.cpp:84] Creating Layer norm2
I0515 19:31:28.212369 66843 net.cpp:406] norm2 <- conv2
I0515 19:31:28.212380 66843 net.cpp:380] norm2 -> norm2
I0515 19:31:28.212687 66843 net.cpp:122] Setting up norm2
I0515 19:31:28.212699 66843 net.cpp:129] Top shape: 64 256 27 27 (11943936)
I0515 19:31:28.212704 66843 net.cpp:137] Memory required for data: 414769408
I0515 19:31:28.212709 66843 layer_factory.hpp:77] Creating layer pool2
I0515 19:31:28.212733 66843 net.cpp:84] Creating Layer pool2
I0515 19:31:28.212738 66843 net.cpp:406] pool2 <- norm2
I0515 19:31:28.212746 66843 net.cpp:380] pool2 -> pool2
I0515 19:31:28.212831 66843 net.cpp:122] Setting up pool2
I0515 19:31:28.212842 66843 net.cpp:129] Top shape: 64 256 13 13 (2768896)
I0515 19:31:28.212847 66843 net.cpp:137] Memory required for data: 425844992
I0515 19:31:28.212852 66843 layer_factory.hpp:77] Creating layer conv3
I0515 19:31:28.212867 66843 net.cpp:84] Creating Layer conv3
I0515 19:31:28.212875 66843 net.cpp:406] conv3 <- pool2
I0515 19:31:28.212885 66843 net.cpp:380] conv3 -> conv3
I0515 19:31:28.231793 66843 net.cpp:122] Setting up conv3
I0515 19:31:28.231856 66843 net.cpp:129] Top shape: 64 384 13 13 (4153344)
I0515 19:31:28.231866 66843 net.cpp:137] Memory required for data: 442458368
I0515 19:31:28.231894 66843 layer_factory.hpp:77] Creating layer relu3
I0515 19:31:28.231927 66843 net.cpp:84] Creating Layer relu3
I0515 19:31:28.231938 66843 net.cpp:406] relu3 <- conv3
I0515 19:31:28.231952 66843 net.cpp:367] relu3 -> conv3 (in-place)
I0515 19:31:28.232389 66843 net.cpp:122] Setting up relu3
I0515 19:31:28.232409 66843 net.cpp:129] Top shape: 64 384 13 13 (4153344)
I0515 19:31:28.232416 66843 net.cpp:137] Memory required for data: 459071744
I0515 19:31:28.232425 66843 layer_factory.hpp:77] Creating layer conv4
I0515 19:31:28.232451 66843 net.cpp:84] Creating Layer conv4
I0515 19:31:28.232460 66843 net.cpp:406] conv4 <- conv3
I0515 19:31:28.232472 66843 net.cpp:380] conv4 -> conv4
I0515 19:31:28.254534 66843 net.cpp:122] Setting up conv4
I0515 19:31:28.254565 66843 net.cpp:129] Top shape: 64 384 13 13 (4153344)
I0515 19:31:28.254575 66843 net.cpp:137] Memory required for data: 475685120
I0515 19:31:28.254586 66843 layer_factory.hpp:77] Creating layer relu4
I0515 19:31:28.254601 66843 net.cpp:84] Creating Layer relu4
I0515 19:31:28.254613 66843 net.cpp:406] relu4 <- conv4
I0515 19:31:28.254623 66843 net.cpp:367] relu4 -> conv4 (in-place)
I0515 19:31:28.254977 66843 net.cpp:122] Setting up relu4
I0515 19:31:28.254999 66843 net.cpp:129] Top shape: 64 384 13 13 (4153344)
I0515 19:31:28.255015 66843 net.cpp:137] Memory required for data: 492298496
I0515 19:31:28.255059 66843 layer_factory.hpp:77] Creating layer conv5
I0515 19:31:28.255089 66843 net.cpp:84] Creating Layer conv5
I0515 19:31:28.255100 66843 net.cpp:406] conv5 <- conv4
I0515 19:31:28.255112 66843 net.cpp:380] conv5 -> conv5
I0515 19:31:28.270386 66843 net.cpp:122] Setting up conv5
I0515 19:31:28.270411 66843 net.cpp:129] Top shape: 64 256 13 13 (2768896)
I0515 19:31:28.270418 66843 net.cpp:137] Memory required for data: 503374080
I0515 19:31:28.270434 66843 layer_factory.hpp:77] Creating layer relu5
I0515 19:31:28.270448 66843 net.cpp:84] Creating Layer relu5
I0515 19:31:28.270458 66843 net.cpp:406] relu5 <- conv5
I0515 19:31:28.270468 66843 net.cpp:367] relu5 -> conv5 (in-place)
I0515 19:31:28.270769 66843 net.cpp:122] Setting up relu5
I0515 19:31:28.270786 66843 net.cpp:129] Top shape: 64 256 13 13 (2768896)
I0515 19:31:28.270790 66843 net.cpp:137] Memory required for data: 514449664
I0515 19:31:28.270797 66843 layer_factory.hpp:77] Creating layer pool5
I0515 19:31:28.270809 66843 net.cpp:84] Creating Layer pool5
I0515 19:31:28.270815 66843 net.cpp:406] pool5 <- conv5
I0515 19:31:28.270823 66843 net.cpp:380] pool5 -> pool5
I0515 19:31:28.270929 66843 net.cpp:122] Setting up pool5
I0515 19:31:28.270941 66843 net.cpp:129] Top shape: 64 256 6 6 (589824)
I0515 19:31:28.270947 66843 net.cpp:137] Memory required for data: 516808960
I0515 19:31:28.270952 66843 layer_factory.hpp:77] Creating layer fc6
I0515 19:31:28.270972 66843 net.cpp:84] Creating Layer fc6
I0515 19:31:28.270979 66843 net.cpp:406] fc6 <- pool5
I0515 19:31:28.270990 66843 net.cpp:380] fc6 -> fc6
I0515 19:31:28.758599 66843 net.cpp:122] Setting up fc6
I0515 19:31:28.758687 66843 net.cpp:129] Top shape: 64 4096 (262144)
I0515 19:31:28.758692 66843 net.cpp:137] Memory required for data: 517857536
I0515 19:31:28.758743 66843 layer_factory.hpp:77] Creating layer relu6
I0515 19:31:28.758759 66843 net.cpp:84] Creating Layer relu6
I0515 19:31:28.758766 66843 net.cpp:406] relu6 <- fc6
I0515 19:31:28.758779 66843 net.cpp:367] relu6 -> fc6 (in-place)
I0515 19:31:28.760043 66843 net.cpp:122] Setting up relu6
I0515 19:31:28.760056 66843 net.cpp:129] Top shape: 64 4096 (262144)
I0515 19:31:28.760061 66843 net.cpp:137] Memory required for data: 518906112
I0515 19:31:28.760063 66843 layer_factory.hpp:77] Creating layer drop6
I0515 19:31:28.760074 66843 net.cpp:84] Creating Layer drop6
I0515 19:31:28.760097 66843 net.cpp:406] drop6 <- fc6
I0515 19:31:28.760102 66843 net.cpp:367] drop6 -> fc6 (in-place)
I0515 19:31:28.760167 66843 net.cpp:122] Setting up drop6
I0515 19:31:28.760174 66843 net.cpp:129] Top shape: 64 4096 (262144)
I0515 19:31:28.760179 66843 net.cpp:137] Memory required for data: 519954688
I0515 19:31:28.760182 66843 layer_factory.hpp:77] Creating layer fc7
I0515 19:31:28.760195 66843 net.cpp:84] Creating Layer fc7
I0515 19:31:28.760200 66843 net.cpp:406] fc7 <- fc6
I0515 19:31:28.760207 66843 net.cpp:380] fc7 -> fc7
I0515 19:31:28.973034 66843 net.cpp:122] Setting up fc7
I0515 19:31:28.973069 66843 net.cpp:129] Top shape: 64 4096 (262144)
I0515 19:31:28.973073 66843 net.cpp:137] Memory required for data: 521003264
I0515 19:31:28.973086 66843 layer_factory.hpp:77] Creating layer relu7
I0515 19:31:28.973098 66843 net.cpp:84] Creating Layer relu7
I0515 19:31:28.973103 66843 net.cpp:406] relu7 <- fc7
I0515 19:31:28.973110 66843 net.cpp:367] relu7 -> fc7 (in-place)
I0515 19:31:28.973414 66843 net.cpp:122] Setting up relu7
I0515 19:31:28.973426 66843 net.cpp:129] Top shape: 64 4096 (262144)
I0515 19:31:28.973429 66843 net.cpp:137] Memory required for data: 522051840
I0515 19:31:28.973433 66843 layer_factory.hpp:77] Creating layer drop7
I0515 19:31:28.973443 66843 net.cpp:84] Creating Layer drop7
I0515 19:31:28.973448 66843 net.cpp:406] drop7 <- fc7
I0515 19:31:28.973453 66843 net.cpp:367] drop7 -> fc7 (in-place)
I0515 19:31:28.973482 66843 net.cpp:122] Setting up drop7
I0515 19:31:28.973489 66843 net.cpp:129] Top shape: 64 4096 (262144)
I0515 19:31:28.973493 66843 net.cpp:137] Memory required for data: 523100416
I0515 19:31:28.973520 66843 layer_factory.hpp:77] Creating layer fc8
I0515 19:31:28.973531 66843 net.cpp:84] Creating Layer fc8
I0515 19:31:28.973534 66843 net.cpp:406] fc8 <- fc7
I0515 19:31:28.973541 66843 net.cpp:380] fc8 -> fc8
I0515 19:31:28.974118 66843 net.cpp:122] Setting up fc8
I0515 19:31:28.974128 66843 net.cpp:129] Top shape: 64 8 (512)
I0515 19:31:28.974130 66843 net.cpp:137] Memory required for data: 523102464
I0515 19:31:28.974138 66843 layer_factory.hpp:77] Creating layer loss
I0515 19:31:28.974145 66843 net.cpp:84] Creating Layer loss
I0515 19:31:28.974148 66843 net.cpp:406] loss <- fc8
I0515 19:31:28.974153 66843 net.cpp:406] loss <- label
I0515 19:31:28.974160 66843 net.cpp:380] loss -> loss
I0515 19:31:28.974174 66843 layer_factory.hpp:77] Creating layer loss
…
I0515 19:31:28.975106 66843 net.cpp:294] The NetState phase (1) differed from the phase (0) specified by a rule in layer data
I0515 19:31:28.975289 66843 net.cpp:51] Initializing net from parameters: 
name: "AlexNet"
state {
  phase: TEST
}
layer {
  name: "data"
  type: "ImageData"
  top: "data"
  top: "label"
  include {
    phase: TEST
  }
  transform_param {
    mirror: false
    mean_file: "/home/gp/zk/ck+/mytest/input/mean.binaryproto"
  }
  image_data_param {
    source: "/home/gp/zk/ck+/mytest/testlabel.txt"
    batch_size: 50
    new_height: 224
    new_width: 224
  }
}
layer {
  name: "conv1"
  type: "Convolution"
  bottom: "data"
  top: "conv1"
  param {
    lr_mult: 1
    decay_mult: 1
  }
  param {
    lr_mult: 2
    decay_mult: 0
  }
  convolution_param {
    num_output: 96
    kernel_size: 11
    stride: 4
    weight_filler {
      type: "gaussian"
      std: 0.01
    }
    bias_filler {
      type: "constant"
      value: 0
    }
  }
}
layer {
  name: "relu1"
  type: "ReLU"
  bottom: "conv1"
  top: "conv1"
}
layer {
  name: "norm1"
  type: "LRN"
  bottom: "conv1"
  top: "norm1"
  lrn_param {
    local_size: 5
    alpha: 0.0001
    beta: 0.75
  }
}
layer {
  name: "pool1"
  type: "Pooling"
  bottom: "norm1"
  top: "pool1"
  pooling_param {
    pool: MAX
    kernel_size: 3
    stride: 2
  }
}
layer {
  name: "conv2"
  type: "Convolution"
  bottom: "pool1"
  top: "conv2"
  param {
    lr_mult: 1
    decay_mult: 1
  }
  param {
    lr_mult: 2
    decay_mult: 0
  }
  convolution_param {
    num_output: 256
    pad: 2
    kernel_size: 5
    group: 2
    weight_filler {
      type: "gaussian"
      std: 0.01
    }
    bias_filler {
      type: "constant"
      value: 0.1
    }
  }
}
layer {
  name: "relu2"
  type: "ReLU"
  bottom: "conv2"
  top: "conv2"
}
layer {
  name: "norm2"
  type: "LRN"
  bottom: "conv2"
  top: "norm2"
  lrn_param {
    local_size: 5
    alpha: 0.0001
    beta: 0.75
  }
}
layer {
  name: "pool2"
  type: "Pooling"
  bottom: "norm2"
  top: "pool2"
  pooling_param {
    pool: MAX
    kernel_size: 3
    stride: 2
  }
}
layer {
  name: "conv3"
  type: "Convolution"
  bottom: "pool2"
  top: "conv3"
  param {
    lr_mult: 1
    decay_mult: 1
  }
  param {
    lr_mult: 2
    decay_mult: 0
  }
  convolution_param {
    num_output: 384
    pad: 1
    kernel_size: 3
    weight_filler {
      type: "gaussian"
      std: 0.01
    }
    bias_filler {
      type: "constant"
      value: 0
    }
  }
}
layer {
  name: "relu3"
  type: "ReLU"
  bottom: "conv3"
  top: "conv3"
}
layer {
  name: "conv4"
  type: "Convolution"
  bottom: "conv3"
  top: "conv4"
  param {
    lr_mult: 1
    decay_mult: 1
  }
  param {
    lr_mult: 2
    decay_mult: 0
  }
  convolution_param {
    num_output: 384
    pad: 1
    kernel_size: 3
    group: 2
    weight_filler {
      type: "gaussian"
      std: 0.01
    }
    bias_filler {
      type: "constant"
      value: 0.1
    }
  }
}
layer {
  name: "relu4"
  type: "ReLU"
  bottom: "conv4"
  top: "conv4"
}
layer {
  name: "conv5"
  type: "Convolution"
  bottom: "conv4"
  top: "conv5"
  param {
    lr_mult: 1
    decay_mult: 1
  }
  param {
    lr_mult: 2
    decay_mult: 0
  }
  convolution_param {
    num_output: 256
    pad: 1
    kernel_size: 3
    group: 2
    weight_filler {
      type: "gaussian"
      std: 0.01
    }
    bias_filler {
      type: "constant"
      value: 0.1
    }
  }
}
layer {
  name: "relu5"
  type: "ReLU"
  bottom: "conv5"
  top: "conv5"
}
layer {
  name: "pool5"
  type: "Pooling"
  bottom: "conv5"
  top: "pool5"
  pooling_param {
    pool: MAX
    kernel_size: 3
    stride: 2
  }
}
layer {
  name: "fc6"
  type: "InnerProduct"
  bottom: "pool5"
  top: "fc6"
  param {
    lr_mult: 1
    decay_mult: 1
  }
  param {
    lr_mult: 2
    decay_mult: 0
  }
  inner_product_param {
    num_output: 4096
    weight_filler {
      type: "gaussian"
      std: 0.005
    }
    bias_filler {
      type: "constant"
      value: 0.1
    }
  }
}
layer {
  name: "relu6"
  type: "ReLU"
  bottom: "fc6"
  top: "fc6"
}
layer {
  name: "drop6"
  type: "Dropout"
  bottom: "fc6"
  top: "fc6"
  dropout_param {
    dropout_ratio: 0.5
  }
}
layer {
  name: "fc7"
  type: "InnerProduct"
  bottom: "fc6"
  top: "fc7"
  param {
    lr_mult: 1
    decay_mult: 1
  }
  param {
    lr_mult: 2
    decay_mult: 0
  }
  inner_product_param {
    num_output: 4096
    weight_filler {
      type: "gaussian"
      std: 0.005
    }
    bias_filler {
      type: "constant"
      value: 0.1
    }
  }
}
layer {
  name: "relu7"
  type: "ReLU"
  bottom: "fc7"
  top: "fc7"
}
layer {
  name: "drop7"
  type: "Dropout"
  bottom: "fc7"
  top: "fc7"
  dropout_param {
    dropout_ratio: 0.5
  }
}
layer {
  name: "fc8"
  type: "InnerProduct"
  bottom: "fc7"
  top: "fc8"
  param {
    lr_mult: 1
    decay_mult: 1
  }
  param {
    lr_mult: 2
    decay_mult: 0
  }
  inner_product_param {
    num_output: 8
    weight_filler {
      type: "gaussian"
      std: 0.01
    }
    bias_filler {
      type: "constant"
      value: 0
    }
  }
}
layer {
  name: "accuracy"
  type: "Accuracy"
  bottom: "fc8"
  bottom: "label"
  top: "accuracy"
  include {
    phase: TEST
  }
}
layer {
  name: "loss"
  type: "SoftmaxWithLoss"
  bottom: "fc8"
  bottom: "label"
  top: "loss"
}
I0515 19:31:28.975422 66843 layer_factory.hpp:77] Creating layer data
I0515 19:31:28.975441 66843 net.cpp:84] Creating Layer data
I0515 19:31:28.975447 66843 net.cpp:380] data -> data
I0515 19:31:28.975455 66843 net.cpp:380] data -> label
I0515 19:31:28.975463 66843 data_transformer.cpp:25] Loading mean file from: /home/gp/zk/ck+/mytest/input/mean.binaryproto
I0515 19:31:28.978358 66843 image_data_layer.cpp:38] Opening file /home/gp/zk/ck+/mytest/testlabel.txt
I0515 19:31:28.978440 66843 image_data_layer.cpp:63] A total of 93 images.
I0515 19:31:28.984359 66843 image_data_layer.cpp:90] output data size: 50,3,224,224
I0515 19:31:29.067893 66843 net.cpp:122] Setting up data
I0515 19:31:29.067921 66843 net.cpp:129] Top shape: 50 3 224 224 (7526400)
I0515 19:31:29.067927 66843 net.cpp:129] Top shape: 50 (50)
I0515 19:31:29.067929 66843 net.cpp:137] Memory required for data: 30105800
I0515 19:31:29.067939 66843 layer_factory.hpp:77] Creating layer label_data_1_split
I0515 19:31:29.067957 66843 net.cpp:84] Creating Layer label_data_1_split
I0515 19:31:29.067962 66843 net.cpp:406] label_data_1_split <- label
I0515 19:31:29.067971 66843 net.cpp:380] label_data_1_split -> label_data_1_split_0
I0515 19:31:29.068014 66843 net.cpp:380] label_data_1_split -> label_data_1_split_1
I0515 19:31:29.068233 66843 net.cpp:122] Setting up label_data_1_split
I0515 19:31:29.068243 66843 net.cpp:129] Top shape: 50 (50)
I0515 19:31:29.068275 66843 net.cpp:129] Top shape: 50 (50)
I0515 19:31:29.068279 66843 net.cpp:137] Memory required for data: 30106200
I0515 19:31:29.068284 66843 layer_factory.hpp:77] Creating layer conv1
I0515 19:31:29.068301 66843 net.cpp:84] Creating Layer conv1
I0515 19:31:29.068306 66843 net.cpp:406] conv1 <- data
I0515 19:31:29.068313 66843 net.cpp:380] conv1 -> conv1
I0515 19:31:29.070977 66843 net.cpp:122] Setting up conv1
I0515 19:31:29.070993 66843 net.cpp:129] Top shape: 50 96 54 54 (13996800)
I0515 19:31:29.070997 66843 net.cpp:137] Memory required for data: 86093400
I0515 19:31:29.071009 66843 layer_factory.hpp:77] Creating layer relu1
I0515 19:31:29.071018 66843 net.cpp:84] Creating Layer relu1
I0515 19:31:29.071025 66843 net.cpp:406] relu1 <- conv1
I0515 19:31:29.071032 66843 net.cpp:367] relu1 -> conv1 (in-place)
I0515 19:31:29.071213 66843 net.cpp:122] Setting up relu1
I0515 19:31:29.071223 66843 net.cpp:129] Top shape: 50 96 54 54 (13996800)
I0515 19:31:29.071226 66843 net.cpp:137] Memory required for data: 142080600
I0515 19:31:29.071230 66843 layer_factory.hpp:77] Creating layer norm1
I0515 19:31:29.071240 66843 net.cpp:84] Creating Layer norm1
I0515 19:31:29.071246 66843 net.cpp:406] norm1 <- conv1
I0515 19:31:29.071252 66843 net.cpp:380] norm1 -> norm1
I0515 19:31:29.072222 66843 net.cpp:122] Setting up norm1
I0515 19:31:29.072237 66843 net.cpp:129] Top shape: 50 96 54 54 (13996800)
I0515 19:31:29.072273 66843 net.cpp:137] Memory required for data: 198067800
I0515 19:31:29.072276 66843 layer_factory.hpp:77] Creating layer pool1
I0515 19:31:29.072284 66843 net.cpp:84] Creating Layer pool1
I0515 19:31:29.072288 66843 net.cpp:406] pool1 <- norm1
I0515 19:31:29.072295 66843 net.cpp:380] pool1 -> pool1
I0515 19:31:29.072340 66843 net.cpp:122] Setting up pool1
I0515 19:31:29.072347 66843 net.cpp:129] Top shape: 50 96 27 27 (3499200)
I0515 19:31:29.072350 66843 net.cpp:137] Memory required for data: 212064600
I0515 19:31:29.072355 66843 layer_factory.hpp:77] Creating layer conv2
I0515 19:31:29.072365 66843 net.cpp:84] Creating Layer conv2
I0515 19:31:29.072367 66843 net.cpp:406] conv2 <- pool1
I0515 19:31:29.072376 66843 net.cpp:380] conv2 -> conv2
I0515 19:31:29.080421 66843 net.cpp:122] Setting up conv2
I0515 19:31:29.080443 66843 net.cpp:129] Top shape: 50 256 27 27 (9331200)
I0515 19:31:29.080448 66843 net.cpp:137] Memory required for data: 249389400
I0515 19:31:29.080459 66843 layer_factory.hpp:77] Creating layer relu2
I0515 19:31:29.080487 66843 net.cpp:84] Creating Layer relu2
I0515 19:31:29.080495 66843 net.cpp:406] relu2 <- conv2
I0515 19:31:29.080502 66843 net.cpp:367] relu2 -> conv2 (in-place)
I0515 19:31:29.081569 66843 net.cpp:122] Setting up relu2
I0515 19:31:29.081584 66843 net.cpp:129] Top shape: 50 256 27 27 (9331200)
I0515 19:31:29.081603 66843 net.cpp:137] Memory required for data: 286714200
I0515 19:31:29.081606 66843 layer_factory.hpp:77] Creating layer norm2
I0515 19:31:29.081631 66843 net.cpp:84] Creating Layer norm2
I0515 19:31:29.081651 66843 net.cpp:406] norm2 <- conv2
I0515 19:31:29.081660 66843 net.cpp:380] norm2 -> norm2
I0515 19:31:29.081889 66843 net.cpp:122] Setting up norm2
I0515 19:31:29.081899 66843 net.cpp:129] Top shape: 50 256 27 27 (9331200)
I0515 19:31:29.081903 66843 net.cpp:137] Memory required for data: 324039000
I0515 19:31:29.081907 66843 layer_factory.hpp:77] Creating layer pool2
I0515 19:31:29.081914 66843 net.cpp:84] Creating Layer pool2
I0515 19:31:29.081919 66843 net.cpp:406] pool2 <- norm2
I0515 19:31:29.081928 66843 net.cpp:380] pool2 -> pool2
I0515 19:31:29.081976 66843 net.cpp:122] Setting up pool2
I0515 19:31:29.081984 66843 net.cpp:129] Top shape: 50 256 13 13 (2163200)
I0515 19:31:29.081986 66843 net.cpp:137] Memory required for data: 332691800
I0515 19:31:29.081991 66843 layer_factory.hpp:77] Creating layer conv3
I0515 19:31:29.082003 66843 net.cpp:84] Creating Layer conv3
I0515 19:31:29.082008 66843 net.cpp:406] conv3 <- pool2
I0515 19:31:29.082017 66843 net.cpp:380] conv3 -> conv3
I0515 19:31:29.095856 66843 net.cpp:122] Setting up conv3
I0515 19:31:29.095872 66843 net.cpp:129] Top shape: 50 384 13 13 (3244800)
I0515 19:31:29.095877 66843 net.cpp:137] Memory required for data: 345671000
I0515 19:31:29.095887 66843 layer_factory.hpp:77] Creating layer relu3
I0515 19:31:29.095906 66843 net.cpp:84] Creating Layer relu3
I0515 19:31:29.095911 66843 net.cpp:406] relu3 <- conv3
I0515 19:31:29.095916 66843 net.cpp:367] relu3 -> conv3 (in-place)
I0515 19:31:29.096117 66843 net.cpp:122] Setting up relu3
I0515 19:31:29.096129 66843 net.cpp:129] Top shape: 50 384 13 13 (3244800)
I0515 19:31:29.096133 66843 net.cpp:137] Memory required for data: 358650200
I0515 19:31:29.096137 66843 layer_factory.hpp:77] Creating layer conv4
I0515 19:31:29.096148 66843 net.cpp:84] Creating Layer conv4
I0515 19:31:29.096151 66843 net.cpp:406] conv4 <- conv3
I0515 19:31:29.096160 66843 net.cpp:380] conv4 -> conv4
I0515 19:31:29.108885 66843 net.cpp:122] Setting up conv4
I0515 19:31:29.108902 66843 net.cpp:129] Top shape: 50 384 13 13 (3244800)
I0515 19:31:29.108925 66843 net.cpp:137] Memory required for data: 371629400
I0515 19:31:29.108944 66843 layer_factory.hpp:77] Creating layer relu4
I0515 19:31:29.108952 66843 net.cpp:84] Creating Layer relu4
I0515 19:31:29.108958 66843 net.cpp:406] relu4 <- conv4
I0515 19:31:29.108966 66843 net.cpp:367] relu4 -> conv4 (in-place)
I0515 19:31:29.109195 66843 net.cpp:122] Setting up relu4
I0515 19:31:29.109206 66843 net.cpp:129] Top shape: 50 384 13 13 (3244800)
I0515 19:31:29.109210 66843 net.cpp:137] Memory required for data: 384608600
I0515 19:31:29.109213 66843 layer_factory.hpp:77] Creating layer conv5
I0515 19:31:29.109225 66843 net.cpp:84] Creating Layer conv5
I0515 19:31:29.109230 66843 net.cpp:406] conv5 <- conv4
I0515 19:31:29.109237 66843 net.cpp:380] conv5 -> conv5
I0515 19:31:29.119611 66843 net.cpp:122] Setting up conv5
I0515 19:31:29.119630 66843 net.cpp:129] Top shape: 50 256 13 13 (2163200)
I0515 19:31:29.119634 66843 net.cpp:137] Memory required for data: 393261400
I0515 19:31:29.119647 66843 layer_factory.hpp:77] Creating layer relu5
I0515 19:31:29.119655 66843 net.cpp:84] Creating Layer relu5
I0515 19:31:29.119660 66843 net.cpp:406] relu5 <- conv5
I0515 19:31:29.119668 66843 net.cpp:367] relu5 -> conv5 (in-place)
I0515 19:31:29.119865 66843 net.cpp:122] Setting up relu5
I0515 19:31:29.119876 66843 net.cpp:129] Top shape: 50 256 13 13 (2163200)
I0515 19:31:29.119880 66843 net.cpp:137] Memory required for data: 401914200
I0515 19:31:29.119884 66843 layer_factory.hpp:77] Creating layer pool5
I0515 19:31:29.119911 66843 net.cpp:84] Creating Layer pool5
I0515 19:31:29.119918 66843 net.cpp:406] pool5 <- conv5
I0515 19:31:29.119925 66843 net.cpp:380] pool5 -> pool5
I0515 19:31:29.119982 66843 net.cpp:122] Setting up pool5
I0515 19:31:29.119990 66843 net.cpp:129] Top shape: 50 256 6 6 (460800)
I0515 19:31:29.119994 66843 net.cpp:137] Memory required for data: 403757400
I0515 19:31:29.119997 66843 layer_factory.hpp:77] Creating layer fc6
I0515 19:31:29.120007 66843 net.cpp:84] Creating Layer fc6
I0515 19:31:29.120012 66843 net.cpp:406] fc6 <- pool5
I0515 19:31:29.120020 66843 net.cpp:380] fc6 -> fc6
I0515 19:31:29.614310 66843 net.cpp:122] Setting up fc6
I0515 19:31:29.614338 66843 net.cpp:129] Top shape: 50 4096 (204800)
I0515 19:31:29.614342 66843 net.cpp:137] Memory required for data: 404576600
I0515 19:31:29.614354 66843 layer_factory.hpp:77] Creating layer relu6
I0515 19:31:29.614367 66843 net.cpp:84] Creating Layer relu6
I0515 19:31:29.614372 66843 net.cpp:406] relu6 <- fc6
I0515 19:31:29.614382 66843 net.cpp:367] relu6 -> fc6 (in-place)
I0515 19:31:29.614645 66843 net.cpp:122] Setting up relu6
I0515 19:31:29.614656 66843 net.cpp:129] Top shape: 50 4096 (204800)
I0515 19:31:29.614660 66843 net.cpp:137] Memory required for data: 405395800
I0515 19:31:29.614662 66843 layer_factory.hpp:77] Creating layer drop6
I0515 19:31:29.614672 66843 net.cpp:84] Creating Layer drop6
I0515 19:31:29.614675 66843 net.cpp:406] drop6 <- fc6
I0515 19:31:29.614681 66843 net.cpp:367] drop6 -> fc6 (in-place)
I0515 19:31:29.614719 66843 net.cpp:122] Setting up drop6
I0515 19:31:29.614734 66843 net.cpp:129] Top shape: 50 4096 (204800)
I0515 19:31:29.614737 66843 net.cpp:137] Memory required for data: 406215000
I0515 19:31:29.614740 66843 layer_factory.hpp:77] Creating layer fc7
I0515 19:31:29.614749 66843 net.cpp:84] Creating Layer fc7
I0515 19:31:29.614753 66843 net.cpp:406] fc7 <- fc6
I0515 19:31:29.614760 66843 net.cpp:380] fc7 -> fc7
I0515 19:31:29.830519 66843 net.cpp:122] Setting up fc7
I0515 19:31:29.830564 66843 net.cpp:129] Top shape: 50 4096 (204800)
I0515 19:31:29.830567 66843 net.cpp:137] Memory required for data: 407034200
I0515 19:31:29.830579 66843 layer_factory.hpp:77] Creating layer relu7
I0515 19:31:29.830590 66843 net.cpp:84] Creating Layer relu7
I0515 19:31:29.830595 66843 net.cpp:406] relu7 <- fc7
I0515 19:31:29.830621 66843 net.cpp:367] relu7 -> fc7 (in-place)
I0515 19:31:29.831753 66843 net.cpp:122] Setting up relu7
I0515 19:31:29.831765 66843 net.cpp:129] Top shape: 50 4096 (204800)
I0515 19:31:29.831784 66843 net.cpp:137] Memory required for data: 407853400
I0515 19:31:29.831789 66843 layer_factory.hpp:77] Creating layer drop7
I0515 19:31:29.831796 66843 net.cpp:84] Creating Layer drop7
I0515 19:31:29.831801 66843 net.cpp:406] drop7 <- fc7
I0515 19:31:29.831809 66843 net.cpp:367] drop7 -> fc7 (in-place)
I0515 19:31:29.831876 66843 net.cpp:122] Setting up drop7
I0515 19:31:29.831884 66843 net.cpp:129] Top shape: 50 4096 (204800)
I0515 19:31:29.831887 66843 net.cpp:137] Memory required for data: 408672600
I0515 19:31:29.831890 66843 layer_factory.hpp:77] Creating layer fc8
I0515 19:31:29.831900 66843 net.cpp:84] Creating Layer fc8
I0515 19:31:29.831904 66843 net.cpp:406] fc8 <- fc7
I0515 19:31:29.831912 66843 net.cpp:380] fc8 -> fc8
I0515 19:31:29.832504 66843 net.cpp:122] Setting up fc8
I0515 19:31:29.832515 66843 net.cpp:129] Top shape: 50 8 (400)
I0515 19:31:29.832518 66843 net.cpp:137] Memory required for data: 408674200
I0515 19:31:29.832525 66843 layer_factory.hpp:77] Creating layer fc8_fc8_0_split
I0515 19:31:29.832532 66843 net.cpp:84] Creating Layer fc8_fc8_0_split
I0515 19:31:29.832537 66843 net.cpp:406] fc8_fc8_0_split <- fc8
I0515 19:31:29.832543 66843 net.cpp:380] fc8_fc8_0_split -> fc8_fc8_0_split_0
I0515 19:31:29.832551 66843 net.cpp:380] fc8_fc8_0_split -> fc8_fc8_0_split_1
I0515 19:31:29.832595 66843 net.cpp:122] Setting up fc8_fc8_0_split
I0515 19:31:29.832603 66843 net.cpp:129] Top shape: 50 8 (400)
I0515 19:31:29.832607 66843 net.cpp:129] Top shape: 50 8 (400)
I0515 19:31:29.832628 66843 net.cpp:137] Memory required for data: 408677400
I0515 19:31:29.832633 66843 layer_factory.hpp:77] Creating layer accuracy
I0515 19:31:29.832643 66843 net.cpp:84] Creating Layer accuracy
I0515 19:31:29.832649 66843 net.cpp:406] accuracy <- fc8_fc8_0_split_0
I0515 19:31:29.832654 66843 net.cpp:406] accuracy <- label_data_1_split_0
I0515 19:31:29.832664 66843 net.cpp:380] accuracy -> accuracy
…
